data.pth (torch, 9687 bytes, 6 tensors)

l1.weight f4 [8, 159]
0.07222967 -0.08463063 0.10931272 0.22026704 0.10846451 0.21533309 -0.20135832 0.19114009
0.19160917 0.30089745 0.100491025 -0.16887367 -0.18819088 -0.20800261 -0.23248646 -0.15272631
0.08235954 0.47703686 -0.07292721 0.208981 0.19661938 0.114026755 0.19539656 0.061281085
-0.18030691 -0.42299736 0.11446229 0.10971995 0.4445982 0.21023858 0.17347443 0.16134949
0.16770418 0.2588895 0.04540907 -0.26240936 0.12710525 -0.08024101 -0.23889224 0.07952187
0.30155614 0.17089924 -0.20214969 0.16361405 0.10312828 0.08649126 0.14942302 -0.21373482
0.18954988 0.14027923 -0.26711845 0.14687443 -0.20082505 0.15243296 -0.1802625 0.11000271
-0.28969327 0.12013069 0.10489806 -0.28915668 -0.2029818 0.07400779 0.22433239 0.22886814
-0.32324842 -0.3402941 -0.23630397 0.055954047 0.06319274 0.09830201 0.11178649 0.14619164
-0.07503265 0.33189362 -0.20735303 0.124011174 -0.5581681 -0.5437747 -0.23810552 0.17354614
-0.24097656 0.095033586 0.036387198 0.29564717 0.16378897 0.13738915 0.11789173 0.4365216
-0.16320617 0.2600142 0.2698145 0.13102126 0.16449219 0.44359094 0.08202357 0.062166784
-0.24120124 0.09202041 -0.30175674 0.18526742 -0.30044848 0.21330772 0.20741388 0.21510781
0.16903493 0.22841898 -0.07292288 -0.33454746 -0.2838525 0.37692517 0.07248987 0.18211506
-0.18017893 0.26375663 -0.21811706 0.11721046 0.19200535 0.44797328 0.10298687 0.38041103
0.08727188 -0.23963991 -0.26540715 0.11434317 0.10467106 0.04403216 -0.34990638 -0.28540632
0.103158295 0.17943925 -0.15358382 0.1919104 -0.15228981 0.099728264 0.12020915 0.17868681
-0.1641931 0.14830287 0.24320348 0.36928722 0.48068553 0.18701096 0.117543615 0.18172954
0.1691734 -0.15356807 0.122330576 0.12545526 -0.11458082 0.17023656 0.10927665 -0.15350844
0.45999402 -0.21951044 -0.1688523 -0.15609644 0.22105311 0.11546207 0.14340599 -0.31726053
0.21261051 -0.2701714 -0.3715355 -0.21870148 -0.41573828 0.31127682 -0.22436695 -0.2443134
-0.46943575 -0.22272341 0.37834084 0.26595104 0.36213 0.47248262 0.32808512 -0.16628683
0.45268407 0.22565563 -0.5221365 -0.333989 -0.37927565 -0.3410239 -0.20993683 0.22204618
0.61338526 -0.28376234 -0.26871628 0.516397 -0.30968675 -0.35901338 -0.21095587 -0.26366442
-0.3631691 -0.2786795 0.46224996 -0.3091738 0.31262228 0.39238602 -0.2550759 -0.35968316
-0.44435048 0.41363832 -0.37681687 -0.2969217 -0.29078537 -0.48341545 0.31869364 -0.35063636
-0.19815837 0.47849056 -0.4409276 0.37118486 -0.1997023 0.26163957 -0.3204487 0.56999534
-0.3488441 -0.26592395 0.5113999 0.3067562 -0.28536022 -0.4151761 -0.3134991 0.71760136
0.5318666 0.2794632 -0.2595462 -0.20104262 -0.25468636 -0.28848338 -0.2327851 -0.08772362
-0.4573943 0.39441654 -0.3044504 0.8415582 0.87104183 0.34267285 -0.28986353 0.40566108
-0.29276025 -0.2987977 -0.3973003 -0.35110536 -0.23008257 -0.26967478 0.47030786 0.34670115
-0.34201747 -0.3815964 -0.28074104 -0.37623823 0.40472487 -0.31129566 -0.26023048 0.51201737
00000000: 26ed 933d d352 adbd 59df df3d af8d 613e
00000010: a422 de3d 4780 5c3e e030 4ebe 3aba 433e
00000020: 3235 443e 3b0f 9a3e 3dce cd3d 38ed 2cbe
00000030: 1cb5 40be a3fe 54be ee10 6ebe 4964 1cbe
00000040: 1eac a83d 2d3e f43e dc5a 95bd 1eff 553e
00000050: 9756 493e dc86 e93d 0916 483e e001 7b3d
00000060: 60a2 38be 1c93 d8be 356b ea3d dab4 e03d
00000070: 60a2 e33e c848 573e 48a3 313e cd38 253e
00000080: a5ba 2b3e 2a8d 843e dcfe 393d 855a 86be
00000090: e127 023e 6655 a4bd 2ba0 74be 5ddc a23d
000000a0: 9165 9a3e 3600 2f3e 5400 4fbe 718a 273e
000000b0: eb34 d33d 5422 b13d 5902 193e 4ddd 5abe
000000c0: 5d19 423e 5ca5 0f3e c0c3 88be 4066 163e
000000d0: 15a5 4dbe 6317 1c3e bc96 38be 1a49 e13d
000000e0: ad52 94be 1407 f63d cbd4 d63d 580c 94be
000000f0: 76da 4fbe 6591 973d 64b7 653e 695c 6a3e
00000100: d180 a5be 073b aebe abf9 71be 1230 653d
00000110: 326b 813d 9052 c93d 51f0 e43d 43b3 153e
00000120: b8aa 99bd f6ed a93e 5a54 54be 92f9 fd3d
00000130: 1be4 0ebf d234 0bbf efd1 73be 14b6 313e
00000140: 8fc2 76be f8a0 c23d be0a 153d 115f 973e
00000150: 4cb8 273e beaf 0c3e 3871 f13d c27f df3e
00000160: 851f 27be 9520 853e 2025 8a3e 702a 063e
00000170: a470 283e 5a1e e33e f9fb a73d 99a2 7e3d
00000180: 75fd 76be 3275 bc3d dc7f 9abe beb6 3d3e
00000190: 62d4 99be 576d 5a3e 4e64 543e 3945 5c3e
000001a0: 7e17 2d3e aae6 693e 9758 95bd ce49 abbe
000001b0: 1d55 91be 56fc c03e 9275 943d 5f7c 3a3e
000001c0: d380 38be 1c0b 873e 145a 5fbe 0a0c f03d
000001d0: 0d9d 443e c15c e53e c8ea d23d 3cc5 c23e
000001e0: 99bb b23d 2a64 75be 72e3 87be c02c ea3d
000001f0: c85d d63d 115b 343d ee26 b3be c720 92be
00000200: a844 d33d ecbe 373e 1445 1dbe 2984 443e
00000210: dcf1 1bbe 553e cc3d 3730 f63d adf9 363e
00000220: 3c22 28be b5dc 173e 550a 793e 3713 bd3e
00000230: 6a1c f63e cd7f 3f3e b5ba f03d 4f17 3a3e
00000240: cb3b 2d3e f340 1dbe 7488 fa3d 5877 003e
00000250: 59a9 eabd 7e52 2e3e 70cc df3d 5131 1dbe
00000260: 5684 eb3e 58c7 60be 9ee7 2cbe bfd7 1fbe
00000270: bf5b 623e 6177 ec3d 05d9 123e f96f a2be
00000280: 92b6 593e e853 8abe e739 bebe 48f3 5fbe
00000290: a6db d4be ad5f 9f3e 73c0 65be 4b2d 7abe
000002a0: e259 f0be 9b11 64be e4b5 c13e bc2a 883e
000002b0: 1a69 b93e 3ee9 f13e c6fa a73e 1847 2abe
000002c0: 35c6 e73e 4512 673e bdaa 05bf 9b00 abbe
000002d0: 6b30 c2be af9a aebe aef9 56be 1360 633e
000002e0: d106 1d3f 4c49 91be 2e95 89be 9832 043f
000002f0: 438f 9ebe 9ad0 b7be d104 58be 06ff 86be
00000300: 4df1 b9be 14af 8ebe 07ac ec3e 074c 9ebe
00000310: 0710 a03e d2e6 c83e 4f99 82be 6428 b8be
00000320: e881 e3be 67c8 d33e 24ee c0be 1f06 98be
00000330: d2e1 94be 3b82 f7be d02b a33e 9c86 b3be
00000340: 07ea 4abe b7fc f43e 43c1 e1be f10b be3e
00000350: c27e 4cbe 9ff5 853e da11 a4be 37eb 113f
00000360: b29b b2be 2f27 88be 1beb 023f 260f 9d3e
00000370: bc1a 92be f691 d4be f482 a0be b9b4 373f
00000380: 6928 083f cd15 8f3e 3de3 84be 1ede 4dbe
00000390: 4066 82be 18b4 93be 385f 6ebe 71a8 b3bd
000003a0: 962f eabe f7f0 c93e ece0 9bbe 5c70 573f
000003b0: 99fc 5e3f d172 af3e fe68 94be cfb2 cf3e
000003c0: ace4 95be 03fc 98be f26a cbbe 15c4 b3be
000003d0: c49a 6bbe d012 8abe 31cc f03e d082 b13e
000003e0: ea1c afbe 9a60 c3be 4abd 8fbe 4ca2 c0be
000003f0: 1938 cf3e 2562 9fbe ee3c 85be 9213 033f

l1.bias f4 [8]
0.5035855 0.7785975 0.40644392 0.47468853 0.53896034 0.45178723 0.8260716 0.65255505
00000000: fbea 003f 2a52 473f 6b19 d03e 600a f33e
00000010: 4ef9 093f a850 e73e 6e79 533f d90d 273f

l2.weight f4 [8, 8]
1.0350348 -0.8883541 1.2951896 -0.50155586 1.2061815 1.021178 -0.8941842 0.55338985
0.88203067 1.4503567 -1.313635 1.0843107 -0.13628592 -0.2715611 1.8800364 -0.07562857
0.9502057 -0.9093268 1.0614122 -0.84346116 1.2150546 0.89710075 -0.5631624 0.64299744
0.19106948 -0.09636809 -0.03429677 0.03547453 -0.1972123 -0.16160987 0.31232604 -0.20539428
-1.0969783 1.5381613 -0.08592716 0.84399694 -0.12362572 -0.7967444 -1.2418104 0.86802787
-0.3034574 2.0517962 -1.0562136 1.1802334 -0.15556851 -0.6852145 1.2478209 0.5837249
-0.8812097 0.95057356 0.3031778 0.88184106 -0.0031241183 -0.31027326 -1.1480821 1.1720977
1.8002186 0.12094822 0.2950199 -0.3041869 1.154529 0.9378749 2.2174218 -0.22665371
00000000: 057c 843f 2d6b 63bf c6c8 a53f f765 00bf
00000010: 2864 9a3f f6b5 823f 41e9 64bf f5aa 0d3f
00000020: c3cc 613f 4aa5 b93f 3125 a8bf b1ca 8a3f
00000030: 898e 0bbe 0e0a 8bbe 08a5 f03f 27e3 9abd
00000040: ae40 733f a4c9 68bf 5bdc 873f 12ed 57bf
00000050: e986 9b3f 65a8 653f 692b 10bf 7b9b 243f
00000060: b8a7 433e a25c c5bd c57a 0cbd be4d 113d
00000070: 05f2 49be 0f7d 25be 33e9 9f3e e152 52be
00000080: c969 8cbf 78e2 c43f 94fa afbd 2f10 583f
00000090: 7b2f fdbd 71f7 4bbf a5f3 9ebf 1337 5e3f
000000a0: c55e 9bbe a150 0340 0232 87bf e311 973f
000000b0: 5a4d 1fbe 386a 2fbf 98b8 9f3f ff6e 153f
000000c0: f596 61bf ca58 733f 1f3a 9b3e 56c0 613f
000000d0: 02be 4cbb 23dc 9ebe 5bf4 92bf 4c07 963f
000000e0: 906d e63f b3b3 f73d d90c 973e 63be 9bbe
000000f0: 9bc7 933f 9218 703f 3dea 0d40 e917 68be

l2.bias f4 [8]
0.34253517 0.5684487 0.27991882 -0.26564038 0.2803869 0.372188 0.33737642 0.32958126
00000000: c560 af3e db85 113f 8551 8f3e 0402 88be
00000010: df8e 8f3e 6d8f be3e 9abc ac3e e0be a83e

l3.weight f4 [3, 8]
1.0672472 -1.0818537 1.0400605 -0.13023838 -0.9784106 -1.2400249 -0.4287194 0.6937039
-0.48061952 -0.0047542364 -0.4783868 -0.09771411 1.2365932 0.59168303 0.6959176 -2.0244174
-1.220662 0.7646516 -1.028733 -0.15596424 -1.7583658 0.3701384 -1.2621837 0.7134022
00000000: 8e9b 883f 2f7a 8abf b420 853f 365d 05be
00000010: 1e79 7abf 23b9 9ebf 1c81 dbbe 9496 313f
00000020: c313 f6be 6dc9 9bbb 1def f4be 561e c8bd
00000030: b048 9e3f 8a78 173f a827 323f 0e90 01c0
00000040: a73e 9cbf 35c0 433f 86ad 83bf 17b5 1fbe
00000050: 2112 e1bf c882 bd3e 3c8f a1bf 87a1 363f

l3.bias f4 [3]
-0.079232246 -0.16427188 0.12719268
00000000: 8444 a2bd e336 28be cc3e 023e
