data.pth (torch, 9687 bytes, 6 tensors)

l1.weight f4 [8, 159]
-0.326749 0.17317587 -0.3031041 -0.27855495 -0.12888706 -0.31077406 0.20987198 -0.2447233
-0.15225005 -0.2823924 -0.10684019 0.32154077 0.15018676 0.1357713 0.18994723 0.13524686
-0.17368858 0.47851944 0.09612857 -0.30408877 -0.2680288 -0.1984065 -0.28663135 -0.16720377
0.11725368 0.4409439 -0.18082952 -0.2861199 0.4386154 -0.3380086 -0.29102296 -0.35034826
-0.15329146 -0.22623594 -0.17255954 0.22821997 -0.17263085 0.19386475 0.26260066 -0.14749095
-0.35197973 -0.31339842 0.18584748 -0.25618783 -0.14609364 -0.24868211 -0.3846936 0.17298685
-0.24718636 -0.18424025 0.23799013 -0.34644067 0.31639016 -0.27208596 0.13884103 -0.2833818
0.30520168 -0.19711858 -0.23467605 0.28138182 0.120555475 -0.20087281 -0.36119127 -0.2565907
0.40585995 0.28241694 0.12750094 -0.15377598 -0.23574851 -0.15350163 -0.17664476 -0.2230566
-0.10006 -0.30993652 0.23047294 -0.1766368 0.58035046 0.7209344 0.14998919 -0.24091484
0.12541342 -0.13335118 -0.22070156 -0.2543185 -0.279866 -0.13934176 -0.26550508 0.4044247
0.100925915 -0.32451656 -0.29917535 -0.25932503 -0.41500467 0.4751764 -0.2818174 -0.21619454
0.32053387 -0.17344134 0.342604 -0.14360185 0.41455615 -0.3647157 -0.33110133 -0.40677938
-0.18058895 -0.4003345 0.13505942 0.30640623 0.17098592 -0.36068007 -0.27528387 -0.31339404
0.18565057 -0.21974027 0.28255212 -0.120873906 -0.26819256 0.5111075 -0.22964019 0.4625098
-0.16689721 0.26494202 0.32237026 -0.2928288 -0.16986954 -0.18525787 0.4305285 0.39880982
-0.3673749 -0.3836245 0.092104845 -0.16811423 0.21854442 -0.2014103 -0.22128902 -0.21561998
0.16016588 -0.36347333 -0.26470265 0.40333384 0.46384993 -0.24282214 -0.26725146 -0.15355392
-0.1323891 0.21179926 -0.2416108 -0.22849375 0.085098885 -0.24791422 -0.23467286 0.22501893
0.4840483 0.2505662 0.11242627 0.17319527 -0.3054861 -0.1973469 -0.30779487 -0.21045683
0.1671747 -0.18569294 -0.23961604 -0.14636283 -0.275595 0.16970947 -0.20059672 -0.11621091
-0.3466228 -0.3326281 0.27271324 0.18238853 0.19879916 0.35063532 0.21029931 -0.18627846
0.29298797 0.1647833 -0.33250603 -0.14680676 -0.27612457 -0.29656756 -0.1967648 0.2411091
0.51989836 -0.19934903 -0.14221415 0.33256242 -0.2838374 -0.2561887 -0.2284328 -0.15924866
-0.27859876 -0.21926734 0.36401194 -0.22207747 0.15233628 0.28142545 -0.16045776 -0.2778813
-0.34135082 0.2963991 -0.22813885 -0.13232963 -0.27619326 -0.34251204 0.13499007 -0.18715172
-0.312556 0.3480387 -0.23594911 0.321658 -0.14423242 0.08141903 -0.15489808 0.35698363
-0.29232424 -0.20634343 0.26255268 0.28472036 -0.117354564 -0.2608621 -0.1294717 0.47045657
0.37555674 0.21489765 -0.17273265 -0.25520504 -0.12992987 -0.11948243 -0.1738711 -0.08687482
-0.3220155 0.19390056 -0.22229306 0.65623254 0.7025913 0.17119469 -0.26020804 0.28486997
-0.14233908 -0.13792774 -0.3620701 -0.21989046 -0.17499568 -0.22020791 0.36550927 0.14112036
-0.29292738 -0.3341249 -0.2426329 -0.27816263 0.32251048 -0.22216907 -0.16535328 0.28831002
00000000: a54b a7be 0455 313e 7630 9bbe c19e 8ebe
00000010: f8fa 03be c71d 9fbe aee8 563e bf98 7abe
00000020: 70e7 1bbe bd95 90be 08cf dabd fea0 a43e
00000030: 8fca 193e a207 0b3e 8781 423e 277e 0a3e
00000040: 6bdb 31be 8000 f53e 0edf c43d 86b1 9bbe
00000050: 123b 89be 132b 4bbe 58c1 92be 7737 2bbe
00000060: b322 f03d 66c3 e13e 602b 39be 4f7e 92be
00000070: 3392 e03e 770f adbe f600 95be d960 b3be
00000080: 70f8 1cbe 65aa 67be 73b3 30be 7fb2 693e
00000090: 24c6 30be 7b84 463e 9873 863e de07 17be
000000a0: b036 b4be c275 a0be cd4e 3e3e 0d2b 83be
000000b0: 9299 15be 86a6 7ebe 8ff6 c4be 7723 313e
000000c0: 6c1e 7dbe 7aa9 3cbe afb3 733e ac60 b1be
000000d0: e4fd a13e da4e 8bbe 582c 0e3e 6b17 91be
000000e0: 6543 9c3e 74d9 49be eb4e 70be 4711 903e
000000f0: cae5 f63d 9ab1 4dbe 10ee b8be db5f 83be
00000100: e0cc cf3e f498 903e 9b8f 023e 7377 1dbe
00000110: 0f68 71be 882f 1dbe 5de2 34be f368 64be
00000120: 42ec ccbd 00b0 9ebe 1901 6c3e 47e0 34be
00000130: d991 143f 288f 383f c496 193e 61b2 76be
00000140: 606c 003e 368d 08be 97ff 61be 0936 82be
00000150: 994a 8fbe 9baf 0ebe 48f0 87be c110 cf3e
00000160: 3fb2 ce3d 0927 a6be 832d 99be 40c6 84be
00000170: 7e7b d4be 524a f33e 5f4a 90be 1a62 5dbe
00000180: 041d a43e 9b9a 31be cb69 af3e 5d0c 13be
00000190: b440 d43e 04bc babe 1d86 a9be 6345 d0be
000001a0: 4fec 38be a5f8 ccbe 044d 0a3e 47e1 9c3e
000001b0: ef16 2f3e 0fab b8be 02f2 8cbe 2f75 a0be
000001c0: 2f1b 3e3e 9803 61be acaa 903e bd8c f7bd
000001d0: 8950 89be f1d7 023f cc26 6bbe 16ce ec3e
000001e0: 1ae7 2abe 7ba6 873e b70d a53e a8ed 95be
000001f0: 48f2 2dbe 3db4 3dbe 3b6e dc3e cd30 cc3e
00000200: 9018 bcbe 6e6a c4be 77a1 bc3d 2326 2cbe
00000210: 1cca 5f3e 803e 4ebe 9799 62be 7ccb 5cbe
00000220: 8602 243e 2d19 babe 1b87 87be c681 ce3e
00000230: bd7d ed3e 5ea6 78be 2fd5 88be 3d3d 1dbe
00000240: 0291 07be e8e1 583e d268 77be 44fa 69be
00000250: 5348 ae3d 3add 7dbe 154e 70be 5d6b 663e
00000260: 2ed5 f73e 374a 803e bf3f e63d 1a5a 313e
00000270: ad68 9cbe 4e15 4abe 4a97 9dbe ff81 57be
00000280: d82f 2b3e 4a26 3ebe e85d 75be 23e0 15be
00000290: ca1a 8dbe 52c8 2d3e 3a69 4dbe fcff edbd
000002a0: 8b78 b1be 3b4e aabe 12a1 8b3e 0fc4 3a3e
000002b0: 0292 4b3e 7986 b33e b458 573e c8bf 3ebe
000002c0: 8502 963e f4bc 283e 3b3e aabe 8354 16be
000002d0: 3360 8dbe b4d7 97be b67c 49be 4ee5 763e
000002e0: 0f18 053f 2722 4cbe 96a0 11be 9f45 aa3e
000002f0: 2353 91be 2a2b 83be 4aea 69be 1512 23be
00000300: 7fa4 8ebe 9e87 60be c65f ba3e 4768 63be
00000310: 0bfe 1b3e ff16 903e 0a4f 24be 7546 8ebe
00000320: 89c5 aebe 9fc1 973e 3b9d 69be 6b81 07be
00000330: 3469 8dbe bd5d afbe d63a 0a3e b3a4 3fbe
00000340: 5707 a0be 2132 b23e a59c 71be 5bb0 a43e
00000350: aab1 13be 05bf a63d 9a9d 1ebe 8fc6 b63e
00000360: 86ab 95be b14b 53be 4e6d 863e dec6 913e
00000370: 9757 f0bd b88f 85be 3b94 04be afdf f03e
00000380: f948 c03e 210e 5c3e d4e0 30be 3caa 82be
00000390: 560c 05be 34b3 f4bd 440b 32be 6deb b1bd
000003a0: 37df a4be de8d 463e cba0 63be dbfe 273f
000003b0: 06dd 333f a94d 2f3e fd39 85be 7ada 913e
000003c0: 56c1 11be ee3c 0dbe 4161 b9be f72a 61be
000003d0: 1132 33be 2f7e 61be 0824 bb3e db81 103e
000003e0: 94fa 95be 6b12 abbe c274 78be 556b 8ebe
000003f0: 1820 a53e 4a80 63be 5f52 29be 5f9d 933e

l1.bias f4 [8]
0.7405749 0.73416317 0.315865 0.6317026 0.69774455 0.46036753 0.74995506 0.46114337
00000000: 5196 3d3f 1ef2 3b3f 0fb9 a13e 43b7 213f
00000010: 639f 323f 4bb5 eb3e 0efd 3f3f fc1a ec3e

l2.weight f4 [8, 8]
0.81808645 0.95885974 1.426859 -0.9285101 -0.033558115 0.1816872 -0.85525584 0.29725665
0.9574257 0.73926437 0.6871309 0.26881257 -0.1285563 -1.2693411 0.5097769 -0.50517124
-1.1124682 -0.6874202 -0.14370482 0.9619907 1.3493 1.5514959 0.78112096 1.1370701
0.47705153 0.66524315 0.8094814 -0.8811806 0.12329453 -0.14808318 -0.88227737 -0.30295187
1.2802678 0.98936784 -0.76755476 0.81187177 0.3224105 -1.8242158 1.4298245 -1.6717893
0.6634401 0.6044316 0.8162219 -0.694328 0.041086126 -0.14332725 -0.840651 -0.16955894
-0.56503576 -0.66043776 -0.73687905 0.5528116 1.101286 1.042217 1.015238 1.0534136
0.89147186 1.1397016 1.3534665 -0.98233956 0.037372135 0.3521377 -1.0430783 0.29918686
00000000: 1d6e 513f d577 753f 51a3 b63f d7b2 6dbf
00000010: 3c74 09bd 360c 3a3e 0cf2 5abf 0632 983e
00000020: da19 753f 6e40 3d3f d0e7 2f3f cda1 893e
00000030: 43a4 03be c579 a2bf bd80 023f e752 01bf
00000040: 5c65 8ebf c5fa 2fbf 5b27 13be 0645 763f
00000050: ddb5 ac3f 6b97 c63f 8bf7 473f 838b 913f
00000060: 1940 f43e 604d 2a3f 2c3a 4f3f 0d95 61bf
00000070: d881 fc3d 1ea3 17be eedc 61bf 821c 9bbe
00000080: d1df a33f 3647 7d3f 787e 44bf d4d6 4f3f
00000090: fd12 a53e e77f e9bf 7d04 b73f 31fd d5bf
000000a0: 36d7 293f 08bc 1a3f ebf3 503f 7bbf 31bf
000000b0: ed49 283d 61c4 12be e734 57bf dca0 2dbe
000000c0: 2fa6 10bf 7312 29bf 1ba4 3cbf 1085 0d3f
000000d0: f1f6 8c3f 5e67 853f 52f3 813f 42d6 863f
000000e0: 8037 643f bee1 913f 643e ad3f 9b7a 7bbf
000000f0: 8613 193d 654b b43e 9783 85bf 052f 993e

l2.bias f4 [8]
0.20278639 0.41247338 0.42315912 0.6229442 0.6601423 0.38032755 0.5689009 0.18568398
00000000: 3ca7 4f3e b62f d33e 50a8 d83e 4579 1f3f
00000010: 16ff 283f 4bba c23e 7da3 113f f123 3e3e

l3.weight f4 [3, 8]
-0.73522496 -1.1405891 1.2398565 -0.4432351 -1.8315543 -0.4819568 1.0344738 -0.7491033
0.85791683 0.28261316 -1.1040186 0.7982296 -1.5685506 0.8394917 -0.83236665 0.80783147
-1.6609344 0.53475386 -0.90153605 -0.13343258 1.3223615 -0.42918983 -0.33147925 -1.4240392
00000000: b437 3cbf d3fe 91bf 9eb3 9e3f b6ef e2be
00000010: 5f70 eabf 0bc3 f6be a369 843f 3cc5 3fbf
00000020: 70a0 5b3f acb2 903e 7b50 8dbf c658 4c3f
00000030: 44c6 c8bf eee8 563f fb15 55bf 0bce 4e3f
00000040: 8099 d4bf a1e5 083f 11cb 66bf 8da2 08be
00000050: 2443 a93f c5be dbbe a6b7 a9be eb46 b6bf

l3.bias f4 [3]
0.25954327 0.002513864 -0.24370682
00000000: dbe2 843e a4bf 243b 488e 79be
