data.pth (torch, 9687 bytes, 6 tensors)

l1.weight f4 [8, 159]
000000 0a f2 7f 3e b7 f5 8b bd a1 84 6f 3e b0 43 7f 3e
       0.24994674 -0.06833976 0.23390438 0.24928164
000010 d0 c7 71 3e 96 22 83 3e df 51 1c be 6c 99 98 3e
       0.23611379 0.25612324 -0.15265606 0.29804552
000020 7f d6 06 3e 1a 8c c2 3e 7b e7 49 3e 15 fe 0e be
       0.13167761 0.37997514 0.19717209 -0.13964112
000030 7e 13 24 be ff 6b 18 be 67 83 5e be 35 06 14 be
       -0.1602306 -0.14884947 -0.21729814 -0.14455493
000040 a3 29 29 3e ed a7 d3 be e5 5d de bd 1c b1 c2 3e
       0.1651979 -0.41339055 -0.10857753 0.3802575
000050 04 65 3d 3e 88 1f 6e 3e 84 af 69 3e b4 e8 83 3e
       0.18495566 0.23254216 0.2282086 0.25763476
000060 80 9e 33 bd e5 91 cf be 96 23 6f 3e 14 30 19 3e
       -0.04385233 -0.40540996 0.23353419 0.14959747
000070 2e 67 c8 be db 67 9f 3e 9e 00 a5 3e bf 2e 4e 3e
       -0.3914122 0.31133923 0.32227033 0.2013502
000080 5f 8e 07 3e cb 04 92 3e 81 18 5d 3e a5 cb 64 be
       0.13237904 0.28519282 0.21591379 -0.22343309
000090 cf 64 7d 3e d9 30 b1 bd ad 90 0c be 3a 4a 14 3e
       0.24745487 -0.08651895 -0.13727064 0.1448144
0000a0 19 f9 bd 3e 66 10 be 3e 36 fd 14 be c3 e0 71 3e
       0.3710411 0.37121886 -0.14549717 0.23620896
0000b0 66 6e 2b 3e 04 e2 3a 3e 93 99 b0 3e 2c 7b 1b be
       0.16741332 0.1825028 0.34492168 -0.15183705
0000c0 45 05 83 3e 19 db 7d 3e 6b f3 45 be 90 27 b4 3e
       0.25589958 0.2479061 -0.19331138 0.35186434
0000d0 dc 4e 20 be 4f 5a 1f 3e be 58 6a bd 03 21 4b 3e
       -0.15655082 0.15561794 -0.057213537 0.19836812
0000e0 49 34 6b be 82 e3 41 3e 65 b9 80 3e 16 5f 7c be
       -0.22969164 0.18934444 0.25141445 -0.24645647
0000f0 6c 5a 25 be 0e a1 93 3e a5 04 bc 3e b3 5b 29 3e
       -0.16147774 0.28833812 0.36722293 0.16538887
000100 fb 9b 89 be ad b0 5c be db bf 37 be 52 d6 fc 3d
       -0.26876816 -0.21551771 -0.17944281 0.12345566
000110 84 ab 60 3e 7c d0 2d 3e ca cf 79 3e 57 ec f0 3d
       0.21940428 0.16974062 0.24395671 0.11763828
000120 f7 bd 26 3e 0a f9 a9 3e 5c 8a 35 be 08 02 3a 3e
       0.16283403 0.33197814 -0.17728561 0.18164837
000130 f2 08 30 bf 28 f8 28 bf 07 34 35 be b1 1f 87 3e
       -0.6876365 -0.66003656 -0.17695628 0.26391366
000140 68 98 32 be e2 4c 62 3e b2 c4 6f 3e 37 ac c4 3e
       -0.17440951 0.22099641 0.23414877 0.3841264
000150 4b 9c 4f 3e 15 24 1c 3e 5a 0e 3d 3e 18 a6 d3 be
       0.20274465 0.15248139 0.18462506 -0.41337657
000160 76 a5 1d be ac 46 c0 3e 66 aa a4 3e a7 e8 36 3e
       -0.1539515 0.37553918 0.32161254 0.17862187
000170 16 fc 9d 3e 60 d2 c5 be ce 6b 42 3e 56 89 f8 3d
       0.3085639 -0.38637066 0.18986437 0.1213557
000180 ae b8 7d be 5b de 1d 3e f3 3e 55 be bc e7 32 3e
       -0.24777481 0.15416853 -0.20824794 0.17471212
000190 47 22 5b be 80 5e b4 3e d4 1c 9d 3e 37 d9 d3 3e
       -0.21399795 0.35228348 0.30686057 0.4137666
0001a0 bb 0e 55 3e aa a1 b5 3e cf 44 dd bd b8 c1 51 be
       0.208064 0.35474902 -0.1080414 -0.20484054
0001b0 a7 4b 4c be 16 04 da 3e 0a f5 c2 3e 9b 32 9c 3e
       -0.19950734 0.42581242 0.38077575 0.3050736
0001c0 cf a2 a8 bd 61 07 86 3e 8b 50 30 be 2f a7 57 3e
       -0.08234178 0.26177505 -0.17218225 0.21059869
0001d0 33 04 92 3e 32 51 be be 9c bd 06 3e 2d a4 d3 be
       0.2851883 -0.37171322 0.13158268 -0.41336194
0001e0 63 52 2a 3e b3 30 23 be 16 33 53 be 8d 7f 26 3e
       0.1663299 -0.15936546 -0.20624956 0.16259594
0001f0 40 df 5d 3e 69 50 3f 3e 32 6b 6b be dc 7a 42 be
       0.21667194 0.18683018 -0.2299011 -0.1899218
000200 a2 fe a6 3e b1 1f a7 3e 2b 50 f8 bd 73 d1 7d 3e
       0.32616144 0.32641366 -0.12124666 0.2478693
000210 8a 3b ed bd c8 52 2f 3e ff f7 3f 3e 8c 05 8f 3e
       -0.11583622 0.17121422 0.18746947 0.2793392
000220 7d b4 06 be f4 05 98 3e d0 3d 4d 3e 9c fb c4 be
       -0.13154788 0.29692042 0.20043111 -0.38473213
000230 46 07 cf be 40 cc 3b 3e 98 6f b9 3e 1c fa 2c 3e
       -0.40435237 0.18339634 0.36217952 0.16892284
000240 1b d5 68 3e 99 5b f3 bd 56 99 30 3e 65 a0 70 3e
       0.22737543 -0.11882705 0.17245993 0.23498686
000250 e7 3e 96 bd 96 f3 83 3e 94 01 93 3e db 36 1f be
       -0.073362164 0.2577178 0.28712142 -0.1554827
000260 6e 0d c8 be 85 31 4c be 22 86 14 be 2a bb 1f be
       -0.39072746 -0.19940765 -0.14504293 -0.15598741
000270 db 0f 84 3e f8 11 6b 3e e4 f1 18 3e a2 86 a3 be
       0.25793347 0.22956073 0.14936024 -0.31938654
000280 94 df d8 3d d8 4d 9e be 4c 47 8f be c6 f0 6e be
       0.10589519 -0.30918765 -0.27984083 -0.23334035
000290 ec de d6 be 41 9c 1a 3e c3 86 7e be 7d 73 30 be
       -0.4196695 0.15098669 -0.24856095 -0.17231555
0002a0 1d 7a df be 19 95 76 be 42 08 a4 3e 35 2b db 3d
       -0.43647853 -0.24080314 0.3203755 0.107016005
0002b0 d7 58 1a 3e b1 5b ba 3e 27 e0 4f 3e 80 f8 8b be
       0.15072952 0.3639808 0.20300351 -0.27338028
0002c0 0f 39 f5 3e 5f 90 09 3e 60 05 d4 be 60 51 8d be
       0.47895095 0.1343398 -0.4141035 -0.27601147
0002d0 e9 df a4 be 18 36 b3 be 59 f9 23 be f0 0e 40 3e
       -0.3220208 -0.35002208 -0.16013087 0.18755698
0002e0 be 03 f8 3e 33 4a 54 be 29 db 84 be 61 d9 0a 3f
       0.48440355 -0.2073143 -0.25948456 0.54237944
0002f0 e4 3f 91 be f7 e9 8d be cc 5e b2 be 73 7f 89 be
       -0.28369057 -0.27717564 -0.3483795 -0.2685505
000300 59 cf 89 be fe a6 39 be d8 84 a0 3e 81 f1 74 be
       -0.26916006 -0.18130109 0.31351352 -0.23920251
000310 e8 7e 1c 3e 21 8d 51 3e 92 e9 3b be ec 96 ae be
       0.15282786 0.20463993 -0.18350819 -0.3409952
000320 d5 a4 c7 be d8 67 9d 3e 39 53 91 be 23 77 86 be
       -0.38992944 0.3074329 -0.28383806 -0.2626277
000330 47 00 92 be d5 07 c2 be 0e 45 80 3e c3 eb ab be
       -0.28515837 -0.378966 0.25052685 -0.3357831
000340 d6 90 4d be 2b 60 d4 3e 25 d8 bf be 61 bd 9d 3e
       -0.20074782 0.4147962 -0.37469593 0.30808547
000350 78 32 7a be 9d e9 1e 3e b2 91 b5 be ba 19 9b 3e
       -0.24433315 0.15518804 -0.3546272 0.30293065
000360 89 81 a7 be fd 24 85 be 92 f7 a4 3e fe 93 4e 3e
       -0.32716015 -0.26004782 0.3222013 0.20173642
000370 60 3b a9 be 81 91 bb be 44 a9 b7 be 2e 85 f7 3e
       -0.33053112 -0.36634448 -0.35871327 0.48343796
000380 32 f7 9b 3e c5 59 0d 3e 4a 3c 67 be 17 77 6b be
       0.30462033 0.13803776 -0.22581592 -0.22994648
000390 2d 35 29 be 2d 00 80 be 61 b1 67 be 00 81 43 bd
       -0.16524191 -0.25000134 -0.22626258 -0.047730446
0003a0 fa a5 c7 be 9d 10 73 3e 91 d2 74 be 6e 0b 44 3f
       -0.38993818 0.23736806 -0.2390845 0.7657994
0003b0 09 32 35 3f 09 de 3e 3e a1 4d 90 be 7e dd 1d 3e
       0.7077947 0.18639387 -0.28184226 0.15416524
0003c0 80 c9 55 be bc 1f 84 be a5 28 c8 be ed 66 af be
       -0.20877647 -0.2580546 -0.3909351 -0.34258214
0003d0 1c 74 96 be a7 ef a9 be 0c 81 eb 3e 26 e0 34 3e
       -0.2938546 -0.33190653 0.45996892 0.17663631
0003e0 d7 06 d2 be 4a 36 ac be 3b 8a af be 41 37 aa be
       -0.41020843 -0.3363517 -0.3428515 -0.3324528
0003f0 74 da f6 3e a3 e4 78 be e4 cd 9c be de ac 57 3e
       0.48213542 -0.24305968 -0.30625832 0.21062037

l1.bias f4 [8]
000000 cc ad d3 3e d6 5e 4c 3f 9e 4b 1b 3f 01 8e e5 3e
       0.41343534 0.7983221 0.6066226 0.44834903
000010 0d cd 28 3f 3b c8 de 3e 1d d7 54 3f e2 28 4b 3f
       0.6593788 0.4351214 0.83140737 0.7935926

l2.weight f4 [8, 8]
000000 6a 94 a5 3f 47 92 f1 be b9 08 77 bf 2e f8 28 3f
       1.2935917 -0.47181913 -0.96497685 0.6600369
000010 eb 64 cf 3e c1 d7 9e 3f a4 b7 e4 3f 5b db ed 3f
       0.40506682 1.2409593 1.7868543 1.8582567
000020 de ed 7e bf 83 36 e1 3f 99 ee 96 3f 52 4c 96 be
       -0.99581707 1.7594761 1.1791564 -0.29355103
000030 d3 0f 16 be 9d 48 8e bf 96 d0 52 3f 67 b9 d5 3e
       -0.14654474 -1.111591 0.82349527 0.41743013
000040 f7 3b 9d bf 96 6d c3 3f f2 04 a7 3f 4e c9 54 be
       -1.2283925 1.5267818 1.3048384 -0.20779917
000050 00 8b 19 3f 12 96 c5 bf 82 76 0b 3f 8b e3 9c 3e
       0.5997772 -1.5436423 0.54477704 0.30642352
000060 af 4d 8b be cd 82 7d be ff 13 6e 3e ed 12 a6 bd
       -0.27207705 -0.24756928 0.23249815 -0.081090786
000070 55 47 07 3e 52 9d ef 3d 7d df a5 bd ac 56 a0 3e
       0.13210805 0.11699928 -0.08099268 0.31316125
000080 ca bd 85 bd 55 59 ee 3e fd 0a a0 3f 07 17 ef 3f
       -0.0653034 0.4655253 1.2503353 1.8678902
000090 cd 05 d4 3f 54 be 15 3e 9e d1 85 bf 16 b0 26 bf
       1.656427 0.14623386 -1.0454595 -0.65112436
0000a0 ac 8d 42 3f c4 5a 9c be fe 06 19 bf 37 0e 04 be
       0.75997424 -0.30538 -0.59776294 -0.12896048
0000b0 19 5d a9 3e 5e 2a 58 3f b6 c8 b2 3f 29 0b d2 3f
       0.3307884 0.8443965 1.3967502 1.6409656
0000c0 91 bc 9e 3f 24 ae 79 bf 5e 48 80 be d4 eb a0 3f
       1.2401296 -0.9753134 -0.25055212 1.2571969
0000d0 54 49 6e 3f 0c 12 a3 3f 24 55 88 3e ce 4d 72 3e
       0.9308064 1.2739882 0.26627457 0.23662493
0000e0 d2 de a4 3c c0 3d 82 3e 55 d5 9e be 7e 65 2a be
       0.02012578 0.25437737 -0.31022134 -0.16640279
0000f0 be 65 81 3d 05 6f 2a be e4 0c 79 3e 87 96 38 be
       0.06318234 -0.16643913 0.24321324 -0.18026172

l2.bias f4 [8]
000000 37 c6 1c 3f fd 40 4e 3f 99 e8 69 3f c7 a9 88 be
       0.6123995 0.80567914 0.9137054 -0.2669203
000010 e6 3d 17 3e 3f 19 0b 3f 40 ae 76 3e 0b 78 a2 be
       0.14769706 0.543354 0.24089909 -0.3173221

l3.weight f4 [3, 8]
000000 af 2f eb 3e 1b 1f a3 bf 3f 76 b3 bf ce fb 0f be
       0.45934817 -1.2743868 -1.4020461 -0.140609
000010 aa 97 69 be e1 07 60 3f 7a 84 5a 3f 31 06 91 3e
       -0.22811761 0.8751202 0.85358393 0.28325036
000020 27 e9 c0 bf 3c 6b 2f 3e cf 50 9d 3e 86 99 32 be
       -1.5071152 0.1713075 0.30725715 -0.17441377
000030 e0 75 a9 3f 2e 74 96 bf 90 00 a5 bc e3 58 02 3e
       1.3239098 -1.1754205 -0.02014187 0.1272922
000040 c5 ef 1d be 72 a3 69 3f 6b 1e 43 3f 96 99 7c bd
       -0.15423496 0.9126502 0.7621829 -0.06166991
000050 7a 11 03 c0 34 0a 0b 3f 3d b8 2c bf ba 43 88 bc
       -2.0479417 0.54312444 -0.67468625 -0.016633857

l3.bias f4 [3]
000000 c9 ad 8e be b3 6a cb 3c e3 97 e6 3e
       -0.27866963 0.024831152 0.45037755
